…
2022-01-12 17:19:18.151492: I tensorflow/stream_executor/platform/default/dso_loader.cc:49] Successfully opened dynamic library libcublasLt.so.11
2022-01-12 17:19:18.334023: I tensorflow/stream_executor/platform/default/dso_loader.cc:49] Successfully opened dynamic library libcudnn.so.8
Profiling traces number: 50000
Attack traces number: 10000
Add desync noise...
Add desync noise...
=============ASCAD_HW_Triplet_ep1_BS512_ES32_desync0.0_alpha0.1_margin0.4_1=============
Model: "sequential"
_________________________________________________________________
Layer (type)                 Output Shape              Param #   
=================================================================
conv1d (Conv1D)              (None, 4000, 64)          1024      
_________________________________________________________________
average_pooling1d (AveragePo (None, 266, 64)           0         
_________________________________________________________________
conv1d_1 (Conv1D)            (None, 266, 128)          24704     
_________________________________________________________________
average_pooling1d_1 (Average (None, 133, 128)          0         
_________________________________________________________________
Flatten (Flatten)            (None, 17024)             0         
_________________________________________________________________
dense (Dense)                (None, 32)                544800    
=================================================================
Total params: 570,528
Trainable params: 570,528
Non-trainable params: 0
_________________________________________________________________
98/98 - 21s - loss: 0.1422 - val_loss: 0.0342
======Tamplate attack======
0/10000
2000/10000
4000/10000
6000/10000
8000/10000
GE:  0.0
GE smaller than 1: 200
GE smaller than 5: 125
Print and save GE TA
=============ASCAD_ID_Triplet_ep1_BS512_ES32_desync0.0_alpha0.1_margin0.4_1=============
Model: "sequential_1"
_________________________________________________________________
Layer (type)                 Output Shape              Param #   
=================================================================
conv1d_2 (Conv1D)            (None, 4000, 64)          1024      
_________________________________________________________________
average_pooling1d_2 (Average (None, 266, 64)           0         
_________________________________________________________________
conv1d_3 (Conv1D)            (None, 266, 128)          24704     
_________________________________________________________________
average_pooling1d_3 (Average (None, 133, 128)          0         
_________________________________________________________________
Flatten (Flatten)            (None, 17024)             0         
_________________________________________________________________
dense_1 (Dense)              (None, 32)                544800    
=================================================================
Total params: 570,528
Trainable params: 570,528
Non-trainable params: 0
_________________________________________________________________
98/98 - 15s - loss: 0.1630 - val_loss: 0.0509
======Tamplate attack======
0/10000
2000/10000
4000/10000
6000/10000
8000/10000
GE:  0.0
GE smaller than 1: 84
GE smaller than 5: 40
Print and save GE TA
Profiling traces number: 50000
Attack traces number: 10000
Add desync noise...
Add desync noise...
=============ASCAD_rand_HW_Triplet_ep1_BS512_ES32_desync0.0_alpha0.1_margin0.4_1=============
Model: "sequential_2"
_________________________________________________________________
Layer (type)                 Output Shape              Param #   
=================================================================
conv1d_4 (Conv1D)            (None, 4000, 64)          1024      
_________________________________________________________________
average_pooling1d_4 (Average (None, 266, 64)           0         
_________________________________________________________________
conv1d_5 (Conv1D)            (None, 266, 128)          24704     
_________________________________________________________________
average_pooling1d_5 (Average (None, 133, 128)          0         
_________________________________________________________________
Flatten (Flatten)            (None, 17024)             0         
_________________________________________________________________
dense_2 (Dense)              (None, 32)                544800    
=================================================================
Total params: 570,528
Trainable params: 570,528
Non-trainable params: 0
_________________________________________________________________
98/98 - 15s - loss: 0.1456 - val_loss: 0.0976
======Tamplate attack======
0/10000
2000/10000
4000/10000
6000/10000
8000/10000
GE:  0.0
GE smaller than 1: 180
GE smaller than 5: 98
Print and save GE TA
=============ASCAD_rand_ID_Triplet_ep1_BS512_ES32_desync0.0_alpha0.1_margin0.4_1=============
Model: "sequential_3"
_________________________________________________________________
Layer (type)                 Output Shape              Param #   
=================================================================
conv1d_6 (Conv1D)            (None, 4000, 64)          1024      
_________________________________________________________________
average_pooling1d_6 (Average (None, 266, 64)           0         
_________________________________________________________________
conv1d_7 (Conv1D)            (None, 266, 128)          24704     
_________________________________________________________________
average_pooling1d_7 (Average (None, 133, 128)          0         
_________________________________________________________________
Flatten (Flatten)            (None, 17024)             0         
_________________________________________________________________
dense_3 (Dense)              (None, 32)                544800    
=================================================================
Total params: 570,528
Trainable params: 570,528
Non-trainable params: 0
_________________________________________________________________
98/98 - 15s - loss: 0.1938 - val_loss: 0.0913
======Tamplate attack======
0/10000
2000/10000
4000/10000
6000/10000
8000/10000
GE:  0.0
GE smaller than 1: 131
GE smaller than 5: 52
Print and save GE TA
Add desync noise...
Add desync noise...
=============AESHD_HW_Triplet_ep1_BS512_ES32_desync0.0_alpha0.9_margin0.4_1=============
Model: "sequential_4"
_________________________________________________________________
Layer (type)                 Output Shape              Param #   
=================================================================
conv1d_8 (Conv1D)            (None, 1250, 64)          1024      
_________________________________________________________________
average_pooling1d_8 (Average (None, 83, 64)            0         
_________________________________________________________________
conv1d_9 (Conv1D)            (None, 83, 128)           24704     
_________________________________________________________________
average_pooling1d_9 (Average (None, 41, 128)           0         
_________________________________________________________________
Flatten (Flatten)            (None, 5248)              0         
_________________________________________________________________
dense_4 (Dense)              (None, 32)                167968    
=================================================================
Total params: 193,696
Trainable params: 193,696
Non-trainable params: 0
_________________________________________________________________
88/88 - 10s - loss: 0.2414 - val_loss: 0.1750
======Tamplate attack======
0/5000
2000/5000
4000/5000
GE:  0.0
GE smaller than 1: 2134
GE smaller than 5: 1574
Print and save GE TA
